dqn_fms_model_consec.pth (torch, 5898 bytes, 6 tensors)

fc1.weight f4 [24, 4]
-0.8497601 0.17464925 1.1991436 0.31771567 0.58833766 -0.43870416 -0.8986281 -0.118862644
-0.45359313 0.31693488 0.24212301 -0.4712298 -0.30968028 0.47386628 -0.24493875 -0.89701897
-0.35977477 0.012753993 -0.94437027 -0.09255635 -0.07384956 -0.2753293 0.24508229 -0.19452837
-0.82795393 -1.0294962 1.3874918 1.4990503 -0.43543166 -0.09129309 1.5546098 0.66659254
-0.12787554 -0.7309769 0.57446766 0.4925715 0.9167018 0.73610544 0.64261234 0.44087985
0.49641338 -0.056558907 0.60221785 0.32325447 -0.35112584 -0.20869738 0.16638875 -0.16913497
-0.08722105 -0.78220725 -0.24205114 -0.8547784 -0.7722881 -0.648255 -0.55497056 -0.6189196
0.01061058 0.77515405 -0.3708766 -0.52247244 0.9661269 1.026344 -0.012584481 0.42189464
0.2644252 0.33184013 -0.6269164 -0.47670698 -0.0073286295 -0.029099464 -0.072291374 -0.27361745
-0.20921151 -0.21155131 -0.72278315 -0.4837429 1.3125746 0.35616052 0.24575199 0.34748667
0.2949088 -0.13286531 -0.12829067 -0.9154663 0.8112562 0.9145171 0.30925983 1.0703496
-0.04649639 0.0057132184 -0.66734785 -0.36581913 0.4038848 -0.029818606 -0.7922467 -0.23834364
00000000: e189 59bf 41d7 323e 8a7d 993f a1ab a23e
00000010: 4c9d 163f d59d e0be 7e0c 66bf 426e f3bd
00000020: 5c3d e8be 4a45 a23e 18ef 773e 0845 f1be
00000030: 6a8e 9ebe 9a9e f23e 39d1 7abe 09a3 65bf
00000040: 6634 b8be 20f6 503c 40c2 71bf 2f8e bdbd
00000050: 703e 97bd f6f7 8cbe daf6 7a3e 7232 47be
00000060: caf4 53bf 88c6 83bf 5599 b13f e1e0 bf3f
00000070: e6f0 debe dff7 babd 74fd c63f cfa5 2a3f
00000080: cef1 02be 4d21 3bbf 5010 133f 5532 fc3e
00000090: f8ac 6a3f 6871 3c3f 3e82 243f 01bb e13e
000000a0: e529 fe3e 50aa 67bd f32a 1a3f 9c81 a53e
000000b0: c4c6 b3be c4b4 55be d061 2a3e b831 2dbe
000000c0: f3a0 b2bd bc3e 48bf 41dc 77be c2d2 5abf
000000d0: acb4 45bf 0af4 25bf 8d12 0ebf 8471 1ebf
000000e0: 00d8 2d3c 7f70 463f 8ae3 bdbe c1c0 05bf
000000f0: 1854 773f 3d5f 833f 242f 4ebc 9302 d83e
00000100: bd62 873e f3e6 a93e 987d 20bf f012 f4be
00000110: 0025 f0bb 0062 eebc 800d 94bd 9617 8cbe
00000120: 8b3b 56be e8a0 58be 5108 39bf 26ad f7be
00000130: 7202 a83f ac5a b63e 69a6 7b3e c6e9 b13e
00000140: 49fe 963e d80d 08be a15e 03be 005c 6abf
00000150: 7cae 4f3f cb1d 6a3f 4e57 9e3e 3701 893f
00000160: 0073 3ebd f335 bb3b 4fd7 2abf a54c bbbe
00000170: fdc9 ce3e 2646 f4bc aed0 4abf 5b10 74be

fc1.bias f4 [24]
4.6278315 8.90626 -0.21399313 9.175025 10.529387 -0.4571741 3.7666357 4.434467
3.7753088 -0.49465427 2.6567879 -0.15008157 9.433116 10.084624 10.315558 -0.40756565
9.858039 -0.14201629 9.946964 -0.32768723 8.624743 -0.289663 10.534352 10.4790945
00000000: 3217 9440 0a80 0e41 0421 5bbe e7cc 1241
00000010: 5f78 2841 b912 eabe 8f10 7140 27e7 8d40
00000020: a99e 7140 5343 fdbe d008 2a40 fcae 19be
00000030: 0bee 1641 9f5a 2141 870c 2541 72ac d0be
00000040: 87ba 1d41 b86c 11be c426 1f41 9fc6 a7be
00000050: f3fe 0941 b54e 94be b58c 2841 5faa 2741

fc2.weight f4 [24, 24]
6.2677865 11.4260235 0.007920114 11.594407 12.582245 -0.0635741 5.6892595 6.029887
5.608816 0.017548563 4.4293876 0.044031534 11.822878 12.231532 12.3543 -0.5982356
12.050924 -0.11516919 12.287968 -0.58811957 11.222738 -0.2510312 12.480057 12.373064
0.39603403 0.4340754 -0.13418125 -0.23280978 -0.5710853 0.07242308 0.64359003 0.39274493
0.46839887 0.62802213 0.28412202 -0.037568677 0.3580624 -0.1571687 -0.45379928 0.5990705
0.03435974 -0.16536033 -0.15717077 0.5891002 0.6681179 0.6384201 -0.26239836 -0.6865673
0.05570869 0.042246267 -0.11288075 0.041637972 -0.17112736 -0.08756089 0.16822211 -0.09199413
-0.049274277 0.66909987 0.2762104 0.06742422 0.39899042 0.026932064 -0.4679008 0.9045823
0.39760315 -0.1786201 0.16479562 0.8626246 0.43366337 0.6484533 -0.7778661 -0.71665037
-0.16050307 -0.0038093592 -0.038047146 0.034672316 -0.033678014 0.013031949 -0.15690914 0.1352094
0.13934031 -0.19168413 -0.12958816 -0.015141907 -0.102371454 0.007642598 -0.20730974 -0.21962966
-0.19297181 0.08003744 -0.13405032 0.07464339 0.12077246 0.12559918 0.021971093 -0.05795112
-1.7105737 0.122633964 -0.1342968 0.29075798 -0.5923032 -0.20488974 -0.96273327 -1.6563189
-1.2284315 0.05312508 0.38709006 0.045547802 -0.19962455 -0.2794224 -0.6555874 0.29834068
-0.16166706 -0.1272377 -0.20305751 0.3168294 0.45222595 0.31067854 -0.4335968 -0.80382526
1.644423 -0.73309666 0.05330415 -0.31812403 -0.55353576 0.19963406 1.7063106 1.7773968
1.2644262 -0.1820041 -0.08629823 -0.023953358 -0.16647185 0.10833903 -1.1419084 -0.08252686
-0.03242598 -0.060947742 0.29284805 -0.4169195 -0.36654833 -0.49172544 -0.37254113 -0.5022869
4.230104 9.900898 0.16812292 9.950194 10.362673 -0.23079062 3.9134238 4.3941417
4.103927 -0.37123698 3.5789003 -0.17894843 10.113169 10.017815 10.315672 -0.43660083
10.257187 0.19089209 10.269608 -0.25722465 9.398863 -0.8177279 10.460184 10.292321
4.643137 9.998218 0.004984595 10.276497 11.0012245 0.18771736 4.215983 4.57057
4.2342076 -0.4510889 3.353453 -0.084865816 10.2355385 10.637918 10.788454 -0.6265185
10.49262 -0.024087217 10.864983 -0.72574073 10.011147 -0.38906687 11.019277 10.976451
-0.18373977 -0.20408387 -0.0758265 -0.14436471 -0.14828856 0.12757039 0.026188705 -0.1140216
0.12622431 0.09801595 0.06214939 -0.07605609 -0.02367031 -0.02443319 0.1601947 -0.07714927
-0.07124965 -0.18907908 -0.12430593 -0.17089526 -0.02211631 0.15807502 -0.03424774 0.06424792
0.097755924 0.14393933 0.12582667 -0.06543498 -0.1155296 0.15291789 -0.11990103 0.04939147
-0.049862653 -0.06492685 0.07592119 -0.07620735 -0.21713404 0.19863294 -0.1586472 0.12605847
-0.2271039 -0.10562659 -0.19436865 0.03777601 0.1050246 -0.13223268 -0.07754428 -0.09541531
0.06669679 0.12849852 -0.005273336 -0.1836934 -0.012638172 0.09536338 -0.12201793 -0.0044367504
0.0037268938 0.054215122 -0.10007817 0.13898346 -0.24231537 -0.041696295 0.12397632 -0.059458118
00000000: b591 c840 fed0 3641 5ec3 013c b182 3941
00000010: e050 4941 2333 82bd 6a0e b640 d6f4 c040
00000020: 6c7b b340 01c2 8f3c 8bbd 8d40 695a 343d
00000030: 822a 3d41 5bb4 4341 36ab 4541 f825 19bf
00000040: 96d0 4041 d3dd ebbd 849b 4441 018f 16bf
00000050: 5690 3341 2987 80be 50ae 4741 12f8 4541
00000060: f9c4 ca3e 213f de3e cf66 09be b065 6ebe
00000070: a532 12bf 8d52 943d 51c2 243f dd15 c93e
00000080: fad1 ef3e 0fc6 203f 7178 913e 9de1 19bd
00000090: f453 b73e d5f0 20be 6158 e8be af5c 193f
000000a0: ccbc 0c3d 3854 29be 60f1 20be 45cf 163f
000000b0: c609 2b3f 806f 233f 1459 86be e0c2 2fbf
000000c0: cc2e 643d 6c0a 2d3d 062e e7bd 948c 2a3d
000000d0: 033c 2fbe 2053 b3bd 6b42 2c3e 6b67 bcbd
000000e0: d3d3 49bd 214a 2b3f 736b 8d3e b615 8a3d
000000f0: 7948 cc3e a2a0 dc3c b290 efbe b592 673f
00000100: a492 cb3e 30e8 36be 2fc0 283e f7d4 5c3f
00000110: 2009 de3e 0901 263f 3c22 47bf 6676 37bf
00000120: eb5a 24be 71a6 79bb 53d7 1bbd 8f04 0e3d
00000130: f5f1 09bd f583 553c caac 20be 5574 0a3e
00000140: 3aaf 0e3e d848 44be c2b2 04be c315 78bc
00000150: 20a8 d1bd c26e fa3b 0149 54be 99e6 60be
00000160: 679a 45be abea a33d 7d44 09be a2de 983d
00000170: 8d57 f73d 129d 003e b9fc b33c 275e 6dbd
00000180: 14f4 dabf 8427 fb3d 1a85 09be 3bde 943e
00000190: 2fa1 17bf 9ece 51be b075 76bf 4202 d4bf
000001a0: 3e3d 9dbf af99 593d ab30 c63e 5590 3a3d
000001b0: 616a 4cbe 7410 8fbe 93d4 27bf 1cc0 983e
000001c0: 0d8c 25be 9a4a 02be 4fee 4fbe 7737 a23e
000001d0: 298a e73e 4211 9f3e 6600 debe 7ec7 4dbf
000001e0: 747c d23f 39ac 3bbf 7455 5a3d 27e1 a2be
000001f0: 85b4 0dbf df6c 4c3e 6368 da3f bd81 e33f
00000200: b8d8 a13f 485f 3abe 20bd b0bd d539 c4bc
00000210: 9977 2abe dae0 dd3d 0e2a 92bf d803 a9bd
00000220: 1bd1 04bd 57a4 79bd 2ef0 953e 7976 d5be
00000230: 39ac bbbe 70c3 fbbe b6bd bebe e095 00bf
00000240: 035d 8740 146a 1e41 6a28 2c3e ff33 1f41
00000250: 82cd 2541 6054 6cbe 8975 7a40 cf9c 8c40
00000260: 5f53 8340 c612 bebe b40c 6540 423e 37be
00000270: 8acf 2141 f848 2041 fe0c 2541 258a dfbe
00000280: 701d 2441 3779 433e 5050 2441 f3b2 83be
00000290: be61 1641 9e56 51bf ea5c 2741 59ad 2441
000002a0: 9494 9440 b3f8 1f41 d055 a33b 886c 2441
000002b0: 0405 3041 fb38 403e 55e9 8640 1c42 9240
000002c0: a17e 8740 20f5 e6be f99e 5640 21ce adbd
000002d0: c4c4 2341 ea34 2a41 829d 2c41 8463 20bf
000002e0: c6e1 2741 8e52 c5bc f8d6 2d41 25ca 39bf
000002f0: a82d 2041 c633 c7be f54e 3041 8b9f 2f41
00000300: 4726 3cbe 5dfb 50be ed4a 9bbd 58d4 13be
00000310: f5d8 17be d0a1 023e b289 d63c 2884 e9bd
00000320: f240 013e 96bc c83d 5c90 7e3d 4cc3 9bbd
00000330: 3de8 c1bc 1d28 c8bc 140a 243e 7000 9ebd
00000340: 56eb 91bd f29d 41be 1c94 febd 2bff 2ebe
00000350: 442d b5bc 6bde 213e 5c47 0cbd 6a94 833d
00000360: 4234 c83d d564 133e b5d8 003e c602 86bd
00000370: c89a ecbd 8296 1c3e ac8e f5bd b64e 4a3d
00000380: c83c 4cbd 5ef8 84bd 927c 9b3d 9912 9cbd
00000390: 6358 5ebe 6f66 4b3e 6974 22be 7915 013e
000003a0: ed8d 68be c152 d8bd 9308 47be 04bb 1a3d
000003b0: 2317 d73d 0168 07be 89cf 9ebd 1a69 c3bd
000003c0: 5498 883d 1e95 033e f3cb acbb 1f1a 3cbe
000003d0: 5610 4fbc e04d c33d 89e4 f9bd 2962 91bb
000003e0: e73e 743b ad10 5e3d c9f5 ccbd ae51 0e3e
000003f0: 8521 78be bcc9 2abd 4ce7 fd3d 5b8a 73bd

fc2.bias f4 [24]
12.231628 -0.49895716 -0.18788971 0.05880995 -0.52596587 -0.6146385 10.162653 10.570299
-0.14818078 -0.21572225 -0.029184267 -0.08982381 -0.44185874 6.4706435 5.7240877 -0.39937958
-0.75439566 -0.49533632 8.600402 -0.3900716 6.1145716 5.1019225 11.950449 11.162287
00000000: c0b4 4341 5077 ffbe 2966 40be b4e2 703d
00000010: b3a5 06bf f358 1dbf 3a9a 2241 f21f 2941
00000020: b4bc 17be 4be6 5cbe d813 efbc 8cf5 b7bd
00000030: 4f3b e2be 830f cf40 ba2b b740 7b7b ccbe
00000040: 1320 41bf b99c fdbe 3f9b 0941 77b7 c7be
00000050: 92aa c340 f342 a340 0a35 3f41 ba98 3241

fc3.weight f4 [4, 24]
-5.0614386 2.220251 1.5328201 0.13570876 0.4849247 1.2783957 -4.917034 -5.073169
-0.13730042 0.016480152 0.09850332 0.014805853 1.7274141 -4.9468555 -5.0252366 2.6617777
1.0740011 2.7728517 -5.07741 2.0121129 -5.1320305 -5.255575 -4.913355 -5.2591357
-0.22021145 5.280863 2.4626045 0.017423974 2.8339286 1.4585541 -0.1454528 -0.067809395
-0.10991413 0.021455621 0.043816395 -0.080067046 2.5836818 0.63548017 0.23699889 1.3373036
0.122610874 1.3292179 -0.020097388 1.6869696 0.21032849 0.48567408 -0.2459081 0.025414048
-0.33101082 0.7941059 1.9708604 -0.14371295 2.3338723 4.448695 0.04860264 -0.22209913
-0.15610401 -0.07032318 0.19404238 -0.041648794 3.0734947 0.37240964 0.4574753 -0.99035877
0.5609877 -1.1907347 0.3435524 5.926978 0.57613575 0.5092204 -0.2060254 -0.33227095
-0.3045863 2.1330624 2.4632277 0.0073710973 2.5574331 -0.6861212 0.035795487 -0.006692405
-0.06348907 0.19815099 0.15397803 -0.0792848 2.135382 0.019920196 0.46308836 2.954526
-0.055094942 2.0125728 0.07399651 0.92256206 0.3836039 0.4045387 -0.23573184 -0.25089398
00000000: 4ef7 a1c0 9818 0e40 7333 c43f 3df7 0a3e
00000010: 0d48 f83e 78a2 a33f 5858 9dc0 6757 a2c0
00000020: 7b98 0cbe 6201 873c 1cbc c93d 4094 723c
00000030: e81b dd3f a44c 9ec0 bdce a0c0 915a 2a40
00000040: de78 893f 6776 3140 257a a2c0 75c6 0040
00000050: 9839 a4c0 ac2d a8c0 343a 9dc0 d74a a8c0
00000060: 1c7f 61be d4fc a840 509b 1d40 b9bc 8e3c
00000070: 165f 3540 e7b1 ba3f 94f1 14be a7df 8abd
00000080: a91a e1bd b3c3 af3c d278 333d 31fa a3bd
00000090: 0b5b 2540 d4ae 223f d6af 723e c42c ab3f
000000a0: 691b fb3d d023 aa3f 47a3 a4bc 9fee d73f
000000b0: 5a60 573e 46aa f83e 55cf 7bbe 1f31 d03c
000000c0: 407a a9be 864a 4b3f 2745 fc3f 7d29 13be
000000d0: 2a5e 1540 b65b 8e40 9013 473d f46d 63be
000000e0: bbd9 1fbe 9905 90bd 0cb3 463e ed97 2abd
000000f0: 23b4 4440 7aac be3e 343a ea3e 2788 7dbf
00000100: e49c 0f3f ff69 98bf 1ae6 af3e cea9 bd40
00000110: a27d 133f 455c 023f 53f8 52be 6b1f aabe
00000120: bcf2 9bbe 1884 0840 86a5 1d40 3f89 f13b
00000130: fcac 2340 a4a5 2fbf 4a9e 123d f64b dbbb
00000140: 8f06 82bd 18e8 4a3e 6bac 1d3e 1260 a2bd
00000150: 19aa 0840 ae2f a33c eb19 ed3e f416 3d40
00000160: 3cab 61bd fecd 0040 7b8b 973d 072d 6c3f
00000170: bb67 c43e b21f cf3e b063 71be 2d75 80be

fc3.bias f4 [4]
-4.789057 0.09802283 0.143824 0.24027395
00000000: f43f 99c0 32c0 c83d 9946 133e 600a 763e
