dqn_fms_model_1000ep.pth (torch, 5828 bytes, 6 tensors)

fc1.weight f4 [24, 4]
0.13610339 -0.31709468 0.33931696 -0.05275277 0.18663345 -0.17440285 -0.11296244 0.28133726
-0.15286428 -0.022073567 0.20062329 -0.45418534 0.44845673 0.057594515 0.23661615 0.20847529
0.42970416 -0.13506834 0.14160451 0.4711158 0.48641172 0.38641745 -0.19298536 -0.21348637
0.011749594 0.51743346 0.20726125 0.40347955 0.07688115 0.26107836 -0.09187335 -0.30359662
0.04743427 -0.257311 0.17096277 -0.15613078 -0.15148681 0.26031744 -0.39439481 -0.486867
0.3465551 -0.04763647 0.6708857 0.43384123 0.061262995 0.19807202 -0.25419366 -0.11542709
-0.28842294 -0.45012027 -0.37859583 -0.14704049 -0.12269908 -0.090824306 0.056007802 -0.36164457
-0.36067957 -0.33383054 -0.28033233 0.11414975 0.03147117 0.24494168 -0.2546895 0.39694142
0.3572227 0.17679884 0.2641101 -0.3103593 -0.26694375 0.16697514 -0.31451666 -0.2278521
0.23247427 0.52531826 -0.39977324 -0.32618025 -0.087176606 -0.25054362 0.29922476 0.06832516
0.3191086 0.07073466 0.3721649 -0.25297895 -0.045772437 -0.21885554 -0.06324107 0.028045803
0.075030886 -0.3114559 0.19305056 -0.19288015 -0.41615844 0.08093098 0.31643417 0.34608048
00000000: b05e 0b3e 3c5a a2be f4ba ad3e 4a13 58bd
00000010: d71c 3f3e a996 32be da58 e7bd 700b 903e
00000020: 7488 1cbe a0d3 b4bc 3170 4d3e fb8a e8be
00000030: 1f9c e53e 3ae8 6b3d 814b 723e 8c7a 553e
00000040: 2f02 dc3e 5b4f 0abe c600 113e 1736 f13e
00000050: f50a f93e 82d8 c53e f49d 45be 2c9c 5abe
00000060: 5e81 403c 8576 043f 4b3c 543e df94 ce3e
00000070: dd73 9d3d 10ac 853e 1828 bcbd 0471 9bbe
00000080: 704a 423d 44be 83be dd10 2f3e bfe0 1fbe
00000090: 5c1f 1bbe 5448 853e 1eee c9be a246 f9be
000000a0: ac6f b13e 761e 43bd 2abf 2b3f 7020 de3e
000000b0: e8ee 7a3d 64d3 4a3e ac25 82be 0a65 ecbd
000000c0: 2cac 93be 2a76 e6be 50d7 c1be c891 16be
000000d0: a849 fbbd 1802 babd 7068 653d 7a29 b9be
000000e0: feaa b8be d6eb aabe b887 8fbe 58c7 e93d
000000f0: eae7 003d fed1 7a3e aa66 82be e83b cb3e
00000100: e5e5 b63e c10a 353e 7039 873e 6ae7 9ebe
00000110: daac 88be 88fb 2a3e 5408 a1be 1052 69be
00000120: bc0d 6e3e 427b 063f 14af ccbe 1901 a7be
00000130: a689 b2bd 4147 80be fd33 993e 10ee 8b3d
00000140: 3462 a33e 55dd 903d 668c be3e 7586 81be
00000150: e17b 3bbd ab1b 60be 8984 81bd 50c0 e53c
00000160: cba9 993d 2677 9fbe 0caf 453e 6082 45be
00000170: b812 d5be 24bf a53d a903 a23e 7631 b13e

fc1.bias f4 [24]
-0.26357988 1.3582864 1.1524286 0.6454685 0.62119895 -0.16482326 -0.17065953 1.3532206
-0.18589352 -0.40230453 -0.17761314 1.1535114 -0.0007209057 -0.4921952 -0.124094844 -0.1694415
1.1759498 -0.4489892 -0.3389785 1.5483186 1.1730963 1.5299507 -0.07597307 1.3594701
00000000: f1f3 86be 54dc ad3f c882 933f 6c3d 253f
00000010: e506 1f3f 6ec7 28be 5fc1 2ebe 5536 ad3f
00000020: df5a 3ebe dcfa cdbe 38e0 35be 43a6 933f
00000030: 2afb 3cba 0201 fcbe 7025 febd 1382 2dbe
00000040: 8685 963f eae1 e5be 978e adbe 4e2f c63f
00000050: 0528 963f 6dd5 c33f c597 9bbd 1e03 ae3f

fc2.weight f4 [24, 24]
0.16698076 -0.036111835 -0.18721202 0.09236862 -0.2296417 0.029411007 -0.12701556 0.16338481
-0.0989497 -0.1689333 -0.18219325 0.05880493 -0.0057029403 -0.050856177 -0.15692842 -0.10866209
-0.08787453 0.047847364 0.16562778 0.031895224 0.11711679 -0.058776345 0.018350253 -0.07581134
-0.15568769 1.24247 1.0434518 -0.45958042 -0.42814368 -0.22981027 -0.22134173 1.139795
-0.19203608 0.08922475 -0.134075 1.2085632 -0.1573249 -0.05128608 -0.18015428 -0.08096286
1.2687143 -0.13358244 0.1569085 0.95556605 1.2924097 1.0751606 0.08261103 1.2634239
-0.026770918 0.7134461 0.19210722 -0.14909686 0.21582858 0.19062957 0.3805976 0.22108665
-0.19242267 0.08318094 0.14197628 0.30584538 -0.2005858 0.14239645 -0.10899433 0.028248
0.54331326 -0.062662154 0.42989853 0.64795315 0.3661796 0.60514027 0.2928807 0.5350909
-0.18715534 -0.20689045 0.10887652 -0.082572214 0.15030316 -0.16630554 -0.015298809 -0.13681756
-0.0589029 -0.16264905 -0.20195857 -0.0018391309 -0.13584563 -0.09424823 -0.021841746 -0.0042908224
0.005134255 -0.10653068 -0.12223165 -0.21800618 0.085212834 0.013275845 -0.119586766 -0.09991824
-0.4893602 0.87363386 0.8681247 -0.45158935 -0.33280832 -0.24364385 -0.22478805 0.69968426
-0.08328488 0.034691438 -0.28818753 0.7546897 -0.028087445 0.17807285 -0.08635147 -0.23645346
0.82394606 0.07317422 0.0057037156 0.91797566 0.750775 0.8633845 0.0076021384 1.068981
-0.13491026 0.92371565 0.9515957 -0.07490082 0.10764813 0.06063943 -0.1646327 0.9341506
-0.17118284 0.033448264 0.081326924 0.8391571 0.009254491 -0.13767473 0.20153305 0.28848204
0.9756621 0.15183522 0.10950001 1.1368179 1.3153783 1.0861181 0.056447703 1.2758206
0.16035366 1.2205768 0.7718287 -0.08056688 -0.21696174 0.23157965 -0.025023201 1.017365
-0.19166109 0.008097677 0.053058073 0.8061803 0.15895271 -0.053041324 -0.15542103 0.07592606
1.1715308 0.020819835 0.13667652 0.91020083 1.2309436 1.0394713 0.15529984 1.2123313
-0.18811914 0.055398513 0.044333342 -0.18208362 -0.086721584 0.1371989 0.19856033 -0.10159161
0.15442374 -0.05985091 -0.18635452 -0.15644556 -0.07151364 -0.036546305 -0.08722565 -0.16500467
-0.03802931 -0.030640105 -0.068099625 0.19368859 -0.17255475 -0.048112333 -0.083381474 -0.026327722
-0.006236031 0.83211523 0.970554 -0.016903648 -0.085413 0.12255241 -0.07905952 0.9202048
-0.015766481 0.10887733 -0.079008535 0.9771216 0.17291981 0.08509949 0.11378284 -0.21029699
0.8144424 -0.17272657 0.22449788 1.0350761 1.0135142 0.8468533 -0.047554303 1.3223038
0.124157496 0.062530175 0.14879009 -0.045380592 -0.07367702 0.0019594247 -0.12206077 -0.078857645
-0.1493853 0.02302866 -0.18954423 0.18184036 0.037991837 0.13741471 -0.13838239 0.01942553
0.028498927 0.022389492 -0.13124302 -0.1601908 -0.09692427 -0.18145074 -0.03291458 0.1866638
0.15235536 -0.10777247 -0.11455679 0.09661855 0.10853438 -0.0030364825 -0.09923676 -0.30771896
0.14835215 -0.014254634 -0.10373105 0.061245054 -0.16154185 0.10523071 0.06837437 0.07323189
00000000: 01fd 2a3e 01ea 13bd 82b4 3fbe c22b bd3d
00000010: 3227 6bbe 5aef f03c 5e10 02be 594e 273e
00000020: 24a6 cabd dafc 2cbe de90 3abe 70dd 703d
00000030: bbdf babb 914e 50bd d8b1 20be 3b8a debd
00000040: 90f7 b3bd 99fb 433d 549a 293e 91a4 023d
00000050: edda ef3d 77bf 70bd 4553 963c fa42 9bbd
00000060: 986c 1fbe 4209 9f3f d48f 853f 204e ebbe
00000070: a635 dbbe 6253 6bbe 68a7 62be cde4 913f
00000080: 1ba5 44be 77bb b63d f54a 09be 33b2 9a3f
00000090: c719 21be 5a11 52bd 5d7a 38be dbcf a5bd
000000a0: 3b65 a23f d6c9 08be 9fac 203e fa9f 743f
000000b0: ae6d a53f dd9e 893f f92f a93d e0b7 a13f
000000c0: af4e dbbc 67a4 363f c1b7 443e d9ac 18be
000000d0: 2b02 5d3e 6634 433e b0dd c23e 8a64 623e
000000e0: 730a 45be c55a aa3d 3b62 113e c497 9c3e
000000f0: 5d66 4dbe 60d0 113e 6b38 dfbd 5a68 e73c
00000100: 9416 0b3f 0455 80bd a91b dc3e 42e0 253f
00000110: e47b bb3e 79ea 1a3f 76f4 953e b8fb 083f
00000120: a6a5 3fbe 17db 53be a7fa de3d 9f1b a9bd
00000130: 12e9 193e 004c 2abe dba7 7abc e719 0cbe
00000140: 2b44 71bd 798d 26be 3ace 4ebe fe0e f1ba
00000150: 1e1b 0bbe 3705 c1bd 76ed b2bc 079a 8cbb
00000160: 413d a83b c22c dabd 9654 fabd 033d 5fbe
00000170: 1184 ae3d ee82 593c e8e9 f4bd efa1 ccbd
00000180: 6c8d fabe 78a6 5f3f 6c3d 5e3f b836 e7be
00000190: da65 aabe c67d 79be d72e 66be 821e 333f
000001a0: 4391 aabd 9c18 0e3d 518d 93be 5833 413f
000001b0: a417 e6bc bb58 363e 0ad9 b0bd db20 72be
000001c0: 21ee 523f 5edc 953d 3ce6 ba3b 7400 6b3f
000001d0: ca32 403f c406 5d3f 5c1b f93b 5fd4 883f
000001e0: ea25 0abe a178 6c3f c79b 733f 9a65 99bd
000001f0: 9f76 dc3d 0d61 783d 7995 28be 7e24 6f3f
00000200: 8e4a 2fbe 0c01 093d bb8e a63d 00d3 563f
00000210: 26a0 173c 9bfa 0cbe ae5e 4e3e ebb3 933e
00000220: fec4 793f b17a 1b3e 8b41 e03d 4083 913f
00000230: 515e a83f eb05 8b3f b535 673d 174e a33f
00000240: c033 243e dc3b 9c3f 9196 453f 4000 a5bd
00000250: 382b 5ebe 3723 6d3e 75fd ccbc 0439 823f
00000260: ce42 44be 1eac 043c 6c53 593d d561 4e3f
00000270: 80c4 223e dc41 59bd b126 1fbe 1f7f 9b3d
00000280: b9f4 953f 5c8e aa3c eef4 0b3e ec02 693f
00000290: 8f8f 9d3f 650d 853f ec06 1f3e ac2d 9b3f
000002a0: 4ea2 40be 8de9 623d e196 353d 2174 3abe
000002b0: 169b b1bd de7d 0c3e 6653 4b3e 430f d0bd
000002c0: 4221 1e3e 3a26 75bd b8d3 3ebe 4433 20be
000002d0: be75 92bd 94b1 15bd 5da3 b2bd fcf6 28be
000002e0: 9fc4 1bbd f500 fbbc d177 8bbd 4d56 463e
000002f0: 31b2 30be 7011 45bd e8c3 aabd 3cad d7bc
00000300: 9f57 ccbb 8105 553f 3a76 783f 8579 8abc
00000310: 03ed aebd c2fc fa3d f5e9 a1bd 8b92 6b3f
00000320: b528 81bc 14fb de3d 3acf a1bd a424 7a3f
00000330: e411 313e a448 ae3d fa06 e93d 1858 57be
00000340: 4c7f 503f 3cdf 30be c6e2 653e 607d 843f
00000350: d5ba 813f 61cb 583f 4dc8 42bd 4041 a93f
00000360: 4946 fe3d d20f 803d 6e5c 183e 00e1 39bd
00000370: fae3 96bd b169 003b fffa f9bd 1e80 a1bd
00000380: 76f8 18be 9aa6 bc3c e217 42be 5c34 3a3e
00000390: 549d 1b3d 71b6 0c3e 1db4 0dbe 4a22 9f3c
000003a0: 9576 e93c 2b6a b73c 9264 06be 0f09 24be
000003b0: 3b80 c6bd 39ce 39be 70d1 06bd cc24 3f3e
000003c0: 0b03 1c3e d0b7 dcbd c09c eabd f2df c53d
000003d0: 4647 de3d b9ff 46bb a43c cbbd 578d 9dbe
000003e0: a0e9 173e 458c 69bc f270 d4bd 18dc 7a3d
000003f0: 3a6b 25be 3383 d73d dd07 8c3d 9afa 953d

fc2.bias f4 [24]
-0.00094368105 0.785127 0.2774169 0.15595241 0.6215406 0.7611764 0.73728067 -0.16017632
0.7942228 -0.13614956 -0.021441946 0.0074926247 -0.092763625 0.81135875 0.79229814 0.7926596
-0.20672353 -0.074443266 0.832382 -0.2291673 0.07778051 -0.1502787 0.82784104 -0.089095324
00000000: 5d61 77ba 15fe 483f 9709 8e3e fdb1 1f3e
00000010: 491d 1f3f 75dc 423f 6dbe 3c3f 4305 24be
00000020: 2f52 4b3f ca6a 0bbe 05a7 afbc b184 f53b
00000030: dbfa bdbd 35b5 4f3f 0dd4 4a3f bdeb 4a3f
00000040: 55af 53be b675 98bd fd16 553f d5aa 6abe
00000050: 634b 9f3d a9e2 19be 64ed 533f 9c77 b6bd

fc3.weight f4 [4, 24]
0.10316988 -0.41655654 0.11312902 0.024631709 -0.15796322 -0.25584826 -0.21722387 0.15922603
-0.19980961 0.21224162 -0.1775624 0.14923039 0.5425919 -0.43388999 -0.44039056 -0.20608154
-0.0996567 -0.010702774 -0.36423883 0.04903798 0.053591337 -0.003104443 -0.38194087 0.44561508
-0.17425045 -0.5707851 -0.49712512 0.08152929 -0.6427879 -0.6477627 -0.6817411 -0.08920151
-0.50278634 0.22511674 -0.04946434 -0.079095535 0.39604232 -0.28864694 -0.4342561 -0.6631695
-0.028010087 0.11933561 -0.6656193 0.0021738652 0.17882659 0.028988006 -0.46016276 0.53282905
0.07852353 -0.25748527 -0.28936702 0.042571038 -0.0061510047 -0.2861426 -0.3281492 -0.16466668
-0.38776782 0.1588111 0.0041340673 0.12947771 -0.3802294 -0.14026438 -0.10696098 -0.149222
0.18364294 0.20086813 -0.16409785 -0.100528136 -0.034992006 0.05546156 -0.19974591 0.080720015
-0.08294642 -0.25368914 -0.115726694 0.14414199 -0.21865131 -0.37260157 -0.30494478 -0.15520628
-0.21795553 -0.097520955 -0.10364953 0.13956964 0.042951252 -0.33974007 -0.12788475 -0.007954799
-0.15269783 0.19606534 -0.30306572 -0.1112413 -0.12066056 -0.0487443 -0.06497202 0.052977726
00000000: bb4a d33d e646 d5be 30b0 e73d 70c8 c93c
00000010: 1cc1 21be 8bfe 82be ef6f 5ebe 260c 233e
00000020: e49a 4cbe de55 593e ebd2 35be dacf 183e
00000030: 4ee7 0a3f d426 debe df7a e1be 0a07 53be
00000040: d018 ccbd b05a 2fbc 837d babe 0ddc 483d
00000050: 9782 5b3d e973 4bbb c18d c3be a927 e43e
00000060: b66e 32be f91e 12bf 2f87 febe d4f8 a63d
00000070: bf8d 24bf c7d3 25bf 9686 2ebf 48af b6bd
00000080: 9bb6 00bf 0185 663e 1f9b 4abd d7fc a1bd
00000090: 0fc6 ca3e 88c9 93be d156 debe 7ac5 29bf
000000a0: 6975 e5bc 3a66 f43d 0766 2abf 6877 0e3b
000000b0: 511e 373e 4178 ed3c 749a ebbe 7c67 083f
000000c0: f2d0 a03d 1cd5 83be ea27 94be f85e 2e3d
000000d0: 5e8e c9bb 4881 92be 2c03 a8be 629e 28be
000000e0: 8189 c6be 619f 223e 1277 873b ce95 043e
000000f0: 6ead c2be 77a1 0fbe 5c0e dbbd a7cd 18be
00000100: e50c 3c3e 60b0 4d3e 4409 28be b2e1 cdbd
00000110: c753 0fbd a92b 633d 318a 4cbe 8950 a53d
00000120: d0df a9bd 8be3 81be 1e02 edbd f599 133e
00000130: 21e6 5fbe a2c5 bebe b921 9cbe 65ee 1ebe
00000140: bc2f 5fbe 11b9 c7bd 3446 d4bd 58eb 0e3e
00000150: a7ed 2f3d 69f2 adbe 38f4 02be d854 02bc
00000160: d25c 1cbe 5ac5 483e 6e2b 9bbe 7bd2 e3bd
00000170: e21c f7bd 1aa8 47bd 0d10 85bd 2cff 583d

fc3.bias f4 [4]
-0.12114088 -0.055181198 -0.05002957 0.25997883
00000000: b618 f8bd ae05 62bd ceeb 4cbd f21b 853e
