dqn_fms_model_10000_new_reward.pth (torch, 6126 bytes, 6 tensors)

fc1.weight f4 [24, 4]
1.1062702 0.71110535 -0.2530223 0.09113234 0.18462767 0.33121327 1.5945297 0.92754436
-0.06693169 -0.12899727 0.17852488 -0.552151 1.3816584 0.1464955 -0.054807078 -0.12851381
-0.49082214 -0.3780802 0.6795216 0.17181937 -0.29720533 -0.37401402 -0.0191526 0.038067102
1.0956163 0.81466895 -0.26269254 0.16235515 1.4822835 0.92720723 0.0054086414 -0.20996879
-0.13066459 -0.4146461 0.19364426 -0.5292731 -0.4322939 0.2859605 0.05625868 -0.3539319
1.635184 0.7760235 0.22174403 -0.37986544 0.11116548 -0.49754006 -0.6681978 -0.29770443
-0.22746366 -0.44234222 -0.114606276 0.13417445 -1.3045956 -0.41625652 1.7248996 1.1664526
2.3834648 2.3203943 -0.2840548 0.7113406 0.34484383 0.47957757 1.0373826 0.88015056
-0.31016308 -0.18969966 -0.34774363 -0.12671481 0.84962505 0.8773676 0.30160257 0.28326157
-0.6911466 -0.4523846 0.85990703 0.5501475 0.4002184 0.4697822 0.9519299 0.76398087
0.12574326 -0.07996829 -0.17505361 -0.15392786 0.2796257 0.0967772 -0.21562213 -0.4451003
1.4016169 -0.06846763 0.48869833 -0.25501865 -0.4205265 0.20317379 0.6094333 -0.054451484
00000000: 439a 8d3f 000b 363f 248c 81be 98a3 ba3d
00000010: 090f 3d3e c994 a93e 8d19 cc3f 8c73 6d3f
00000020: 7b13 89bd dc17 04be 3acf 363e c559 0dbf
00000030: 2fda b03f eb02 163e 637d 60bd 2099 03be
00000040: 0a4d fbbe ba93 c1be 21f5 2d3f 6bf1 2f3e
00000050: 4c2b 98be c47e bfbe eae5 9cbc 40ec 1b3d
00000060: 283d 8c3f 258e 503f a37f 86be 6e40 263e
00000070: 77bb bd3f 745d 6d3f f93a b13b 0f02 57be
00000080: f0cc 05be 7e4c d4be ae4a 463e 717e 07bf
00000090: a055 ddbe 6a69 923e 806f 663d 9036 b5be
000000a0: b64d d13f 7aa9 463f de10 633e b97d c2be
000000b0: baaa e33d 92bd febe 030f 2bbf b76c 98be
000000c0: 3cec 68be ae7a e2be b2b6 eabd 0765 093e
000000d0: fdfc a6bf 931f d5be 83c9 dc3f 524e 953f
000000e0: b08a 1840 5781 1440 a16f 91be 6b1a 363f
000000f0: 5f8f b03e 318b f53e f4c8 843f 8c51 613f
00000100: b2cd 9ebe a140 42be 740b b2be 87c1 01be
00000110: 0781 593f 2a9b 603f a76b 9a3e a907 913e
00000120: fcee 30bf f49e e7be de22 5c3f 77d6 0c3f
00000130: 6de9 cc3e 4b87 f03e aeb1 733f 4094 433f
00000140: d7c2 003e 6ac6 a3bd 4141 33be 449f 1dbe
00000150: 1a2b 8f3e 2033 c63d 0ccc 5cbe 30e4 e3be
00000160: 2f68 b33f c238 8cbd ab36 fa3e ce91 82be
00000170: 404f d7be ca0c 503e d203 1c3f 8508 5fbd

fc1.bias f4 [24]
0.98317695 -0.18386042 1.5900009 0.94867855 1.2932637 -0.29291338 0.29041994 1.1667598
1.383906 -0.015997827 1.1931301 1.3126373 -0.27007407 0.7712077 -0.3869904 -0.19489872
1.6993258 0.9877951 0.64303464 -0.20513056 -0.001073198 -0.36466295 1.1464373 -0.14150521
00000000: 7cb1 7b3f e845 3cbe 2685 cb3f 99dc 723f
00000010: aa89 a53f bef8 95be ecb1 943e 6358 953f
00000020: d523 b13f e00d 83bc 7db8 983f 8004 a83f
00000030: 2647 8abe de6d 453f 9b23 c6be 8893 47be
00000040: 8283 d93f 24e0 7c3f eb9d 243f bf0d 52be
00000050: 8daa 8cba 1ab5 babe 75be 923f bee6 10be

fc2.weight f4 [24, 24]
-0.115418956 0.075212836 1.276932 0.24551791 0.53965664 0.08761186 0.3019937 0.25411958
1.0978067 -0.14960046 0.25744468 -0.69853204 -0.17289798 -0.017996896 0.106912136 0.10619952
1.2009176 0.046007067 0.43604717 0.24983312 -0.25843796 -0.17584644 0.4775396 0.21274246
0.20408079 0.06775076 1.4189456 0.17475882 0.6541423 0.040182386 0.010936863 0.52922046
1.4765366 0.07286176 0.560664 -0.5472735 -0.13782933 0.060080722 0.28278697 0.17891367
1.0605571 0.19118588 0.42734757 0.1580331 0.0536371 -0.01651979 0.5498895 0.02318798
0.02051045 0.027694875 0.85230666 0.31872183 0.5594349 -0.16596854 0.54223204 0.43512878
1.2961262 0.12537286 0.69838727 -0.543627 -0.1874973 -0.9525084 0.9964582 0.36946636
1.2068753 0.06782677 0.009753601 0.22103359 0.03384408 -0.16345514 0.6578172 -0.019395854
0.089753255 0.2421708 0.64189035 0.33539996 0.31501797 0.06835404 0.51146966 0.19065909
0.7274592 0.111084305 0.6414571 -0.78296006 -0.12222574 -0.80891293 0.5558771 0.16692263
0.8155705 -0.098022476 0.22366609 0.22646202 0.14847778 -0.051500894 0.18922529 -0.28564575
0.07453956 0.16383263 1.0044253 0.2693935 0.38034394 -0.21465129 0.16175076 0.3410608
1.0453603 -0.13447203 0.30873364 -0.8976619 0.15492 -0.70311266 0.4958064 0.10281527
1.1978856 -0.2632492 0.30790365 0.108768255 0.15390752 0.16345653 0.19647303 -0.30274093
0.10536297 0.088693604 1.3409773 0.34013 0.5498857 0.05886995 0.37800285 0.5249764
1.1686151 -0.03994903 0.4512446 -0.37539873 -0.11083523 0.26323336 0.26857096 0.22277395
1.2107776 0.3033796 0.6288406 0.08143968 0.17799528 0.13311937 0.671463 0.1470324
0.39932114 0.11536802 1.0912114 0.5400817 0.4079656 0.14371288 0.35393122 0.52657807
1.1735417 0.014823332 0.75034565 -0.42881748 0.16574351 -0.76994646 1.0840966 0.111251764
0.9273435 0.27028465 0.06545724 0.23973995 -0.256607 -0.0019209591 0.5924128 -0.2887304
0.14771593 1.0149164 0.06305976 -0.32010612 0.21873462 -0.03143654 -0.0690358 -0.2536231
-0.082621954 0.13972281 -0.47428232 1.7704223 0.032403715 1.4284979 0.72758526 0.72222793
-0.06589138 0.25535992 0.71357787 1.0968927 0.19711278 -0.09591853 -0.29719296 0.080123335
-0.14218654 -0.06362709 -0.085214004 -0.20190358 0.008082406 0.19701213 0.0634307 0.022083519
-0.16109999 0.19160956 0.15287304 -0.13538882 -0.18421263 0.12271343 -0.23874854 -0.20537515
-0.057432257 0.025037393 -0.11449481 0.038612682 0.11616129 0.122470796 0.19851245 0.0036262106
-0.13167687 -0.03390505 -0.17471182 0.1582854 0.18707126 0.03698932 -0.18907875 -0.15317722
-0.20379682 -0.12754256 -0.1506088 -0.0644514 0.05857121 0.12753376 0.04261401 -0.20381035
-0.11840917 -0.18712606 -0.11155516 -0.09231989 -0.1319344 0.04165841 0.0024242 0.03843067
0.033676784 0.043164007 0.053457547 -0.012991216 -0.08074181 -0.07364841 0.11893312 -0.1324127
0.05101935 -0.06759424 -0.26107556 -0.22060363 0.15491565 0.029685797 -0.010682264 -0.24056518
00000000: c660 ecbd 3009 9a3d 8272 a33f 0c69 7b3e
00000010: f026 0a3f d96d b33d eb9e 9a3e f61b 823e
00000020: ee84 8c3f dd30 19be cacf 833e ffd2 32bf
00000030: 2b0c 31be 3a6e 93bc c0f4 da3d 227f d93d
00000040: abb7 993f e871 3c3d 9341 df3e 41d4 7f3e
00000050: fb51 84be 1711 34be 1280 f43e 29d9 593e
00000060: 8efa 503e e9c0 8a3d 02a0 b53f faf3 323e
00000070: df75 273f 4996 243d 8730 333c fe7a 073f
00000080: 27ff bc3f 8c38 953d ad87 0f3f 1e1a 0cbf
00000090: 2223 0dbe 3417 763d 74c9 903e 2535 373e
000000a0: 56c0 873f 3bc6 433e 4dcd da3e 6ed3 213e
000000b0: 93b2 5b3d 8354 87bc 8fc5 0c3f b8f4 bd3c
000000c0: 8805 a83c 5de0 e23c c530 5a3f 822f a33e
000000d0: 2037 0f3f a8f3 29be b8cf 0a3f 33c9 de3e
000000e0: 77e7 a53f be61 003e 82c9 323f 242b 0bbf
000000f0: 4bff 3fbe 97d7 73bf e217 7f3f b22a bd3e
00000100: e47a 9a3f c3e8 8a3d 91cd 1f3c a156 623e
00000110: 17a0 0a3d c960 27be b566 283f 0ee4 9ebc
00000120: 8ed0 b73d 9ffb 773e ed52 243f 8bb9 ab3e
00000130: 094a a13e 34fd 8b3d adef 023f 233c 433e
00000140: c43a 3a3f 2b80 e33d 8836 243f 1270 48bf
00000150: 7d51 fabd eb14 4fbf f64d 0e3f c4ed 2a3e
00000160: 3ac9 503f 02c0 c8bd b908 653e a9e5 673e
00000170: 8f0a 183e 9af2 52bd 46c4 413e 2940 92be
00000180: 32a8 983d bec3 273e 0291 803f f2ed 893e
00000190: 71bc c23e 8ccd 5bbe fea1 253e 859f ae3e
000001a0: 5ece 853f 09b3 09be 5612 9e3e 2ccd 65bf
000001b0: 59a3 1e3e 31ff 33bf 56da fd3e d090 d23d
000001c0: 5154 993f 99c8 86be 8ca5 9d3e e4c1 de3d
000001d0: ef99 1d3e 2661 273e 3a30 493e dc00 9bbe
000001e0: 8ac8 d73d fea4 b53d 25a5 ab3f 8525 ae3e
000001f0: 4fc5 0c3f 9e21 713d 9789 c13e da64 063f
00000200: 2e95 953f 98a1 23bd 8809 e73e 4334 c0be
00000210: 95fd e2bd 86c6 863e 2282 893e db1e 643e
00000220: c3fa 9a3f 9254 9b3e b3fb 203f d9c9 a63d
00000230: 6544 363e 7250 083e 00e5 2b3f a98f 163e
00000240: d273 cc3e 1246 ec3d d1ac 8b3f cb42 0a3f
00000250: dee0 d03e 7829 133e 7936 b53e d2cd 063f
00000260: 9d36 963f 90dd 723c a716 403f f78d dbbe
00000270: abb8 293e 361b 45bf adc3 8a3f f7d7 e33d
00000280: 6266 6d3f c062 8a3e 720e 863d 647e 753e
00000290: fe61 83be b1c8 fbba 5ea8 173f 79d4 93be
000002a0: d842 173e c8e8 813f 7a25 813d f3e4 a3be
000002b0: f8fb 5f3e 9ac3 00bd a462 8dbd e3da 81be
000002c0: b335 a9bd 7f13 0f3e 22d5 f2be 339d e23f
000002d0: c2b9 043d 05d9 b63f 0743 3a3f eee3 383f
000002e0: 0ff2 86bd 89be 823e 0aad 363f fb66 8c3f
000002f0: efd7 493e ef70 c4bd ad29 98be b417 a43d
00000300: 5999 11be eb4e 82bd ae84 aebd d0bf 4ebe
00000310: 116c 043c 8cbd 493e f4e7 813d 7fe8 b43c
00000320: 65f7 24be 4c35 443e c08a 1c3e 5ea3 0abe
00000330: 3ca2 3cbe 2e51 fb3d 7f7a 74be dd4d 52be
00000340: 163e 6bbd 381b cd3c 417c eabd 5528 1e3d
00000350: f8e5 ed3d f8d1 fa3d d946 4b3e b8a5 6d3b
00000360: 4dd6 06be 06e0 0abd a8e7 32be 9115 223e
00000370: 9c8f 3f3e 1d82 173d dc9d 41be 7dda 1cbe
00000380: 1db0 50be 849a 02be 3139 1abe 18ff 83bd
00000390: 5de8 6f3d 3698 023e 078c 2e3d a9b3 50be
000003a0: 8280 f2bd f99d 3fbe 0877 e4bd 3612 bdbd
000003b0: d019 07be 02a2 2a3d 54df 1e3b 7a69 1d3d
000003c0: abf0 093d becc 303d 4df6 5a3d 1cd9 54bc
000003d0: f65b a5bd fad4 96bd 3593 f33d 3297 07be
000003e0: aaf9 503d d96e 8abd b2ab 85be ebe5 61be
000003f0: 35a2 1e3e a12f f33c aa04 2fbc b856 76be

fc2.bias f4 [24]
0.33224532 0.4633189 0.719529 0.4132666 0.34659436 0.56592965 0.48686358 -0.1474609
-0.17203069 -0.107036255 -0.22503433 0.17443734 -0.12226219 0.07785699 -0.00032355086 0.073789135
-0.030743705 0.62415296 0.33557898 0.23428273 0.0453124 0.2853778 0.6724952 0.05264475
00000000: 0f1c aa3e 2338 ed3e 0d33 383f ae97 d33e
00000010: d174 b13e c4e0 103f 2f46 f93e fdff 16be
00000020: d028 30be d335 dbbd 666f 66be b49f 323e
00000030: 9964 fabd 7c73 9f3d 43a2 a9b9 c21e 973d
00000040: 39da fbbc 7dc8 1f3f 02d1 ab3e d0e7 6f3e
00000050: 7f99 393d 0a1d 923e a528 2c3f 05a2 573d

fc3.weight f4 [4, 24]
-0.21840383 -0.23440477 -0.3172567 -0.15436451 -0.13930015 -0.03839541 -0.34051478 -0.7342169
-0.02753031 0.10358251 -0.10086337 0.1464822 -0.07176667 -0.202326 -0.17003122 -0.11091565
-0.048995394 -0.051538926 -0.0075080795 -0.161115 -0.05773968 0.0059651784 -0.23969717 0.13220218
0.937499 0.8987634 0.81765497 0.71125096 0.54635715 0.9868705 1.0117337 1.6838756
0.09319241 0.09286482 0.03861458 -0.01714172 0.15412547 -0.033638503 0.17807636 -0.08926697
0.90982145 0.95116055 0.928624 0.7136435 0.87241405 0.6339797 0.93898576 -0.07748693
0.72534984 0.78282064 1.117311 0.86734873 0.7653962 0.9978519 1.1569633 1.2688743
0.050442435 0.043289118 -0.0049546873 -0.13898712 0.14195754 -0.2009952 0.17998329 -0.109309725
-0.6819913 1.0732824 0.55036825 0.847384 -0.83825994 0.6983163 1.1266257 -0.044279713
0.975733 0.8480757 0.9877753 0.8238865 0.9997973 0.7974157 0.90356797 0.2595288
-0.17229806 -0.13140136 -0.07499437 -0.0963244 0.06946299 0.15368155 0.013240706 0.043749876
-0.61661655 1.011121 0.70251626 0.73090404 -0.41402584 0.8978208 1.0408969 -0.0044262875
00000000: 41a5 5fbe ce07 70be 786f a2be bb11 1ebe
00000010: b3a4 0ebe 8144 1dbd f457 aebe a4f5 3bbf
00000020: 3f87 e1bc 1123 d43d 7491 cebd 6eff 153e
00000030: 67fa 92bd 8c2e 4fbe aa1c 2ebe bf27 e3bd
00000040: 65af 48bd 7b1a 53bd 5606 f6bb 55fb 24be
00000050: 7180 6cbd 8b77 c33b 2d73 75be 0260 073e
00000060: efff 6f3f 5c15 663f d651 513f 8b14 363f
00000070: 10de 0b3f 8ca3 7c3f 7d80 813f 3c89 d73f
00000080: aadb be3d e92f be3d 522a 1e3d cb6c 8cbc
00000090: 11d3 1d3e 87c8 09bd a659 363e 9ad1 b6bd
000000a0: 0fea 683f 427f 733f 4dba 6d3f 57b1 363f
000000b0: 8756 5f3f 7e4c 223f 5f61 703f 78b1 9ebd
000000c0: 87b0 393f ef66 483f 0c04 8f3f 910a 5e3f
000000d0: 01f1 433f 3973 7f3f 6017 943f 796a a23f
000000e0: ba9c 4e3d ee4f 313d ee5a a2bb a452 0ebe
000000f0: 515d 113e b0d1 4dbe 8a4d 383e c7dd dfbd
00000100: fb96 2ebf 5161 893f efe4 0c3f 28ee 583f
00000110: 3498 56bf dbc4 323f 4535 903f a55e 35bd
00000120: a3c9 793f 7d1b 593f d8de 7c3f 3aea 523f
00000130: b7f2 7f3f 6f23 4c3f 3b50 673f f5e0 843e
00000140: e76e 30be 148e 06be a696 99bd ba45 c5bd
00000150: 9d42 8e3d b25e 1d3e 8cef 583c 1233 333d
00000160: 95da 1dbf 6a6c 813f 1bd8 333f 871c 3b3f
00000170: 32fb d3be 95d7 653f 1c3c 853f 640a 91bb

fc3.bias f4 [4]
-0.4961163 0.63875437 0.3997917 0.61056733
00000000: f502 febe 6885 233f 7fb1 cc3e 244e 1c3f
