dqn_fms_model_consec.pth (torch, 5898 bytes, 6 tensors)

fc1.weight f4 [24, 4]
00000000: 444f 793e 717d 423f c9fc e93e fa24 ad3e
00000010: b690 1b3f 2f4e 673f 33af 0c3e 56ca 1b3e
00000020: c88e a3bf 2f6a 53be cf87 af3c 898c e13e
00000030: dc3a 2d3f e5e9 113f db7a d0bd 61e4 0b3d
00000040: 5d3c da3e d174 023f 153f 4c3f 1833 96bd
00000050: 0570 2c3e c523 713e c4b9 b43e 54f4 eebe
00000060: 1ccb 093f 0280 883f 587b 4a3e 092a 4abc
00000070: 27a4 8e3e 4bd7 333c f262 b5be 1c96 d4bf
00000080: c204 7fbf e54f 85be 50bb 9ebe f8f7 903e
00000090: fc0d 0cbf ca9a cabe dc59 37bf be59 dfbe
000000a0: 52cd b23e f197 213f 4914 3c3f 3315 933e
000000b0: 582d c33c 7343 fcbc 7497 b9bf 43de 0dbf
000000c0: d6b7 4240 34b7 a13f 5fa2 0d40 ca4b e43f
000000d0: b6f0 9f3f 9e7e 373f 57e4 f33e 5043 e73e
000000e0: b546 413f b2bb 58be 6885 02bf 9693 a3bf
000000f0: d2d6 b83e 32a7 b7bd ffb0 05bd be43 c13e
00000100: d91e 17bf 112b 51be 5485 453e cc53 23be
00000110: c90c 3abf c7c0 aebe 5167 c3be 0426 4abf
00000120: bd07 b53e 3b01 7f3f 489e 223f ca45 023f
00000130: a0b2 833c f6e9 cdbe c401 16be 364f 9ebe
00000140: 0825 2940 e9dc 143f 67a2 803f 095c 193f
00000150: 26a4 243f 8112 9a3e 6942 803f d45b e23e
00000160: 9f27 2e3f deee 423f a677 883d d8e7 0c3e
00000170: db0d 5d3f 90db 9f3f e144 5c3e 5085 b43e
0.24346644 0.7597266 0.45700672 0.33817273 0.60767686 0.90353674 0.13738708 0.15213904
-1.2777948 -0.20645975 0.021427063 0.44052532 0.6766794 0.5699752 -0.10179683 0.034153346
0.4262418 0.509595 0.79783756 -0.07333964 0.16839607 0.23548801 0.35297978 -0.46670783
0.53825545 1.0664065 0.19773614 -0.0123391235 0.27859613 0.010976623 -0.35427052 -1.660831
-0.99616635 -0.26037517 -0.31002283 0.28314185 -0.5470884 -0.3957122 -0.7162149 -0.43623155
0.34922272 0.6312247 0.7346845 0.2872711 0.023825333 -0.030793881 -1.4499345 -0.5541727
3.0424705 1.2634034 2.2130353 1.7835629 1.2495334 0.7167758 0.47635147 0.45168543
0.75498515 -0.2116535 -0.5098481 -1.2779415 0.36101395 -0.08967437 -0.0326395 0.37746996
-0.59031445 -0.20426585 0.19289142 -0.15949935 -0.7267576 -0.34131452 -0.38164762 -0.7896426
0.35357466 0.9961125 0.6352277 0.5088774 0.016076386 -0.4021756 -0.14649111 -0.30919808
2.6428852 0.5814958 1.0049561 0.5990606 0.6431297 0.30092242 1.0020267 0.44210684
0.68029207 0.7614573 0.06663446 0.13760316 0.86349267 1.248888 0.2151065 0.3525796

fc1.bias f4 [24]
00000000: a68b dd40 5c7a b440 cf35 d440 755e ad40
00000010: 416f aa40 73be d240 6905 af40 b1db db40
00000020: 7323 d740 3638 da40 b37a b840 8566 e340
00000030: 538d 1c3e f196 4840 dfd8 dc40 2896 db40
00000040: 1d4d db40 b6d4 de40 aeab d640 c8cb c2bd
00000050: 209d 383e 3503 4f40 dd0c b440 65f4 8b40
6.923297 5.6399364 6.6315684 5.4177804 5.326081 6.585748 5.4694104 6.870568
6.7230773 6.8193617 5.764978 7.1062646 0.15288286 3.1342127 6.9014735 6.8620796
6.8531632 6.9634657 6.708457 -0.095115244 0.18028688 3.2345707 5.62657 4.3735833

fc2.weight f4 [24, 24]
00000000: e7b0 5e3c 7588 50be af5c 58bc c29a 253d
00000010: 7aa2 8bbe a154 6fbe 6bcb bb3c 482a 01be
00000020: 8ff2 4abe 2893 9fbd e8ad 81bc 14e9 31be
00000030: 78d5 adbc ffcc 57bd 9db1 51bd 5f19 68bd
00000040: 3b3c 103e 38e8 a6bd 8148 71be 7e28 d7bd
00000050: 8942 a53d 9d13 d13d 24be af3d b82b b8bd
00000060: 0370 98bd 1b74 a03c 6105 f03d 9e71 383d
00000070: 7522 23be 2c6c 34bd 417f fd3d 1ab0 abbd
00000080: 10e8 df3d 166f 963c cd1d 27be d015 0d3c
00000090: 90f2 0e3b 64d5 273e eedc e7bc 882c 51be
000000a0: 7208 39be 4b6c d43d 25fc 01be e82d b53b
000000b0: 63ab dbbc 3d1e 353e 2b8d f9bd a3ab 27be
000000c0: 63c7 9b40 15bd 6f40 cccb c340 2519 7540
000000d0: 31b6 6340 2dcb b840 4629 6840 d6a2 d340
000000e0: ad05 d340 7b56 cf40 e098 7a40 fb56 d140
000000f0: 75a5 02bf 153c bf3f 622c d240 ba57 a940
00000100: faec ba40 ff02 d440 66b0 9440 5237 0a3e
00000110: ad93 d2be 7bf8 e63f c60e 7e40 2a03 1440
00000120: 6685 8440 b546 6b40 23e1 a640 5947 7e40
00000130: 6fcc 6840 f69d 9440 92f0 7b40 2cec 9f40
00000140: 7f94 9c40 ed00 a540 134a 8040 669b 9b40
00000150: 558e 9c3d 157a 0b40 757e a240 2e72 9340
00000160: 7a7a a040 6541 a340 da09 8540 04f6 a63c
00000170: 78c9 9c3e 7617 0540 4593 7040 88af 4740
00000180: cf60 a240 dcc1 7c40 2ab7 cb40 6e80 7040
00000190: 7b8c 6a40 dd36 b140 7acf 6440 e70d ca40
000001a0: f958 cf40 84d6 c940 55bd 7a40 2c8a c740
000001b0: 3d0a 49bf da98 a53f d3b9 ca40 3823 ad40
000001c0: 363d c240 6947 cb40 73b0 9740 3856 64bc
000001d0: e094 27bf a5fc f03f 3c3b 6d40 e47a 1640
000001e0: 4749 0ebe c1d3 14be 4263 d1bd 1657 24bd
000001f0: 3f01 14bd d597 213e 36e9 92bc 2ecd 4e3e
00000200: 81e6 b3bd 779d 1fbe 2e30 4bbe 0ed2 473e
00000210: cdf1 ecbd 3466 fbbd d86c a63d d6c9 4b3e
00000220: bf18 23be 39d5 41be 17c8 2f3c 57c3 14be
00000230: 9849 163e 64af e03d 5baf 97bc d70c 4dbe
00000240: c7a1 9a40 b802 6e40 c1bc c340 283f 6440
00000250: aaaf 5b40 6f5f ab40 d3bd 6840 23db c740
00000260: d156 d140 0477 cb40 448e 7540 596c ca40
00000270: c726 16bf 799f ec3f 5f23 c340 ac10 a740
00000280: fdaf b840 0d68 d140 0190 8540 57dc b13d
00000290: c604 aabe f67a ea3f 7636 6140 5d51 2d40
000002a0: d990 0e3f e987 9f3f c798 97bf fe43 893f
000002b0: 67a9 aa3f 8dc6 0b3f f95a 8b3f be58 80bf
000002c0: b4da b8bf 48a6 b1bf ea00 8e3f d1d4 05bf
000002d0: 0fc0 ea3f d227 eb3f 772c 63bf 4b54 363e
000002e0: ac8a f2be 0b3d c2bf 8a33 633f d518 30be
000002f0: d0ca d33f c570 e13f 6679 713f e5f3 a83f
00000300: dd52 1f3f 7129 7f3f 865d 47bf f7cf 833f
00000310: 4d3d 863f f2d2 fa3e 720a 4c3f 4c0a 12bf
00000320: 3653 83bf 228a 84bf 71c1 623f ac2c aebd
00000330: 9f92 b83f c25e a93f b6e2 55be c7c7 c43e
00000340: 7a6a 68bd 76d2 8dbf d218 f43e 0a69 c7bd
00000350: ff0a c93f 31da b43f 88b7 2d3f 2c1a 8a3f
00000360: dd34 523e 95c6 4f3f e8e9 2ebf 0262 523f
00000370: b533 563f c446 133e c655 363f 6d06 2fbf
00000380: ab04 5fbf c70d 46bf 21c1 5f3f 902e c5be
00000390: 3fdc 1040 646f f93f cc2f 24bf 1d92 a33e
000003a0: 9d73 833d c17e 19bf b3d7 053f fd8e 1bbc
000003b0: e9f4 1140 f8a8 fa3f c822 543f 484a 973f
000003c0: d8f8 053b 08e4 79bd ae67 63bd c5a6 d53d
000003d0: 8441 b2bc 88a3 fe3d b300 923a 0046 aebd
000003e0: 1419 1a3e 11ac a73d ab9b c5bb e8db 51be
000003f0: 36f1 533c 978f 4abe b71b 45bd 3d0c f938
0.0135919815 -0.20364554 -0.013205691 0.04043079 -0.27272397 -0.23372127 0.022924146 -0.12613785
-0.19819091 -0.0779174 -0.015829995 -0.17374068 -0.021219954 -0.052685734 -0.051194776 -0.05666482
0.14085476 -0.08149761 -0.23562814 -0.1050577 0.08069331 0.10208819 0.08581188 -0.08992714
-0.074432395 0.019586613 0.11719776 0.04503023 -0.15931113 -0.044048473 0.123777874 -0.08383198
0.10932934 0.018363517 -0.16319962 0.008611158 0.002181206 0.16389996 -0.02830359 -0.20427144
-0.18069628 0.10372218 -0.12693842 0.005529154 -0.026815122 0.17687316 -0.12185129 -0.16374068
4.868089 3.7459157 6.1186275 3.8296597 3.557995 5.7748017 3.6275191 6.6136274
6.594443 6.4793067 3.9155807 6.5418677 -0.5103372 1.494021 6.567918 5.291959
5.841428 6.6253657 4.646533 0.13497666 -0.41128293 1.804458 3.9696517 2.312693
4.141284 3.6761906 5.2149825 3.9731047 3.6374776 4.6442823 3.9365582 4.9975796
4.893127 5.156363 4.0090423 4.8627195 0.07644335 2.1793263 5.0779366 4.607688
5.0149508 5.1017327 4.1574526 0.020380981 0.30622458 2.079557 3.7589886 3.1200886
5.0743175 3.9493322 6.366109 3.7578387 3.6648242 5.537947 3.5751634 6.314197
6.479611 6.307436 3.917806 6.2356167 -0.7853125 1.2937272 6.3351836 5.410549
6.069972 6.352467 4.740289 -0.013936572 -0.6546154 1.8827101 3.7067404 2.3512506
-0.1389514 -0.14533903 -0.1022401 -0.040122114 -0.036134 0.15780576 -0.01793347 0.20195457
-0.087841995 -0.15587412 -0.19842598 0.19513723 -0.11569557 -0.12275353 0.08126229 0.19901213
-0.15927409 -0.18928994 0.0107288575 -0.14527641 0.14676511 0.10970953 -0.018516233 -0.2002443
4.832248 3.718916 6.1167912 3.5663548 3.4325967 5.3553996 3.636586 6.2455
6.5418477 6.3582783 3.8368082 6.325726 -0.5865292 1.8486167 6.0980678 5.220785
5.771483 6.5439515 4.1738286 0.086846046 -0.33206767 1.8318775 3.518949 2.708091
0.5568977 1.2463351 -1.1843499 1.0723875 1.3332947 0.5459984 1.0887138 -1.0027082
-1.4441743 -1.387887 1.1094029 -0.5227786 1.8339862 1.8371527 -0.8873972 0.17805593
-0.47371423 -1.5174879 0.8875052 -0.17196973 1.6546268 1.761254 0.94325864 1.3199431
0.62235814 0.9967261 -0.7787708 1.0297841 1.0487458 0.48989064 0.7970344 -0.5704696
-1.0259769 -1.0354655 0.8857642 -0.08504614 1.4419745 1.3232043 -0.20887265 0.38433668
-0.05674217 -1.1079853 0.47675186 -0.097368315 1.5706481 1.4129087 0.6785817 1.0789237
0.20527978 0.8116239 -0.6832566 0.821808 0.8367265 0.14382464 0.7122463 -0.6836918
-0.871165 -0.7736477 0.87404066 -0.38512087 2.2634428 1.9487119 -0.6413543 0.31947413
0.06418536 -0.59959036 0.52282256 -0.00949454 2.2805731 1.9582815 0.8286557 1.1819544
0.0020442512 -0.061008483 -0.0555188 0.104321994 -0.021759756 0.12433535 0.0011139124 -0.08509445
0.15048629 0.08187116 -0.00603052 -0.20494044 0.012935927 -0.19781338 -0.048122134 0.00011875525

fc2.bias f4 [24]
00000000: cf79 82be 2846 0d3e c031 c640 43e0 a440
00000010: b900 c140 823b 00be e45f c540 ccea 38bf
00000020: 5a19 23be 6ed0 1cbf b2a9 b03c 6bae 2bbf
00000030: 2a3c 0bbf d084 06bf 6f15 09bf 5110 2cbe
00000040: c666 c140 b3c9 b540 fb4b bb3d dcc1 b440
00000050: 4fd2 bf40 d9ce 903d 00b5 0cbd e9ec ffbd
-0.25483558 0.13796294 6.193573 5.1523757 6.031338 -0.125227 6.1679554 -0.7223327
-0.1592764 -0.6125554 0.021565292 -0.67063016 -0.5438868 -0.52546406 -0.5354833 -0.16803099
6.0437956 5.6808715 0.091453515 5.6486645 5.9944224 0.07070703 -0.034352303 -0.12496359

fc3.weight f4 [4, 24]
00000000: 6949 c4bc 2a98 1fbe 328e 45c0 69d8 0ac0
00000010: 06e0 3ac0 53c7 4ebe 9c7e 39c0 a64d 2c40
00000020: 5de2 2140 e530 2a40 4add 20be ffb3 4140
00000030: 9c81 2f40 e53f 843f 2396 1a40 1a95 43bc
00000040: 77c4 41c0 06bf 25c0 f33a debd 667b 2ec0
00000050: f1cc 35c0 5690 1ebe 089f c23b 3e3d 84bd
00000060: 9a20 433c 0553 103e deb3 24c0 4221 15c0
00000070: df70 1ec0 c75f 703c b01a 32c0 53a9 02be
00000080: b1b9 a5bd 4d2b 0f3f dadb 00be b5ce 6e3e
00000090: 7889 f13d c30b eabe 6b7e 17be c723 2c3e
000000a0: e844 2fc0 bcd7 21c0 6451 e5bd edad 1ac0
000000b0: a0f9 2fc0 5eb3 3c3e 4fad 32be be60 b13d
000000c0: 1d8b ad3d 2c6a b83d d321 2dc0 d82b f7bf
000000d0: c927 25c0 1b35 a23d e712 22c0 b4b4 e23f
000000e0: 9cff 0e40 490a 1d40 4e5e 683d 2bdd e23f
000000f0: 78cb 4940 a67b 403f f2f3 1c40 d320 033e
00000100: fb12 1bc0 aef5 29c0 ae11 f9bd 8e62 2fc0
00000110: f148 31c0 e7f5 ecbc c1af 0c3e 19e2 33be
00000120: 2811 cebc e4a1 113e 187e 2ec0 be70 08c0
00000130: 56de 43c0 0e18 d4bd 704a 40c0 95b8 1140
00000140: 9788 f03f a351 1240 9089 87bd 03de e63f
00000150: 390a 1540 af04 383f 4ecd 1740 269e 08bd
00000160: 8bd2 23c0 7180 27c0 6313 553d e591 2cc0
00000170: 2821 28c0 2447 f23a 6f0f 6f3d b54a 1bbe
-0.023960786 -0.1558539 -3.086804 -2.1694586 -2.9199233 -0.20193224 -2.8983526 2.6922393
2.529441 2.6592343 -0.15709415 3.026611 2.7422857 1.0331999 2.4154136 -0.011937404
-3.0276163 -2.5897841 -0.108510874 -2.7262816 -2.8406336 -0.15484747 0.005939368 -0.064569935
0.011909628 0.1409417 -2.5734782 -2.330155 -2.475639 0.014671273 -2.7828789 -0.12759905
-0.080920584 0.55925447 -0.12583867 0.2332104 0.11793798 -0.45712098 -0.14794318 0.16810523
-2.7385807 -2.5287924 -0.11197165 -2.4168656 -2.749611 0.18427798 -0.17448924 0.0866103
0.084737994 0.09004626 -2.7051895 -1.9310255 -2.5805533 0.07920285 -2.5324037 1.7711396
2.2343512 2.4537528 0.05673056 1.7723745 3.1530437 0.7518867 2.4523892 0.1280549
-2.4230335 -2.65562 -0.12161575 -2.7403903 -2.770077 -0.02892585 0.1373892 -0.17566718
-0.025154665 0.14221913 -2.7264462 -2.1318812 -3.0604453 -0.103561506 -3.0045433 2.276891
1.8791684 2.2862327 -0.06618035 1.8036503 2.328749 0.71882147 2.3719058 -0.033353947
-2.5597255 -2.6172144 0.05202044 -2.6964047 -2.6270237 0.0018484336 0.058364328 -0.15165217

fc3.bias f4 [4]
00000000: ee69 31c0 28ce 28c0 ce78 06c0 9b23 13c0
-2.7720904 -2.6375828 -2.1011233 -2.2990482
