dqn_fms_model.pth (torch, 5828 bytes, 6 tensors)

fc1.weight f4 [24, 4]
00000000: 29e6 85be 0b6f bb3e 7b66 693f 549a d03e
00000010: 70a2 843c 0ba6 8fbe 1068 c3be 16ce dd3e
00000020: dd87 aabe 3e4e bebe 446e debe b47f 2a3e
00000030: c26d a8be 323c abbd 15a2 ffbe eba1 ae3e
00000040: a818 89bd eae3 80be b77e 49b9 dc85 d53e
00000050: acd5 e4bd 1e09 f0bd e4ee d7be 7168 82be
00000060: e60f eabe ba45 b3be 1070 253e 3fe0 f0be
00000070: 2656 3b3e 2899 b03e 54f0 37be 87a3 8fbe
00000080: 06b6 8b3e 5275 95be ac3e 9d3e e4b7 cabe
00000090: c538 5fbe 78ad e6be 49c3 683e 2a1f c7be
000000a0: 99d4 10be 1075 f2be 1f94 88be 312f 4d3e
000000b0: 12cf 983e b8dc 0ebe 605f 033e 00c0 c9be
000000c0: d9be 76be 21b4 203f a140 8a3c cd1e 6e3e
000000d0: 534d c8be 840b cd3e 5812 15be 025a 08bf
000000e0: de1a 233e 123a 9fbd e899 853d e889 923d
000000f0: e661 77be 6236 e63e 215a 9fbc bb3a 0cbf
00000100: 6c3f ccbe 24c3 dcbe 7430 d0bd e92a 1a3e
00000110: 4f74 6bbe 5f3c 0fbe 2474 d5be 26d6 01be
00000120: b564 12be 222d 073f 7c58 a5be 2072 14be
00000130: d19e 23bf 1282 86be da81 2c3e d0f3 a43d
00000140: 51e8 833e ab6b cc3e 3acc 423d 744d c2be
00000150: 9036 fbbe 2008 00bd 745e e7be 56b6 dfbe
00000160: d460 08bf d0c1 b3be 6fbf 68be 074f 203e
00000170: 574b 203e 4ee2 efbe c067 7fbe 1dbf d1be
-0.2615216 0.36608157 0.91172 0.40742743 0.016190737 -0.28056368 -0.3816533 0.43321294
-0.3330678 -0.3716907 -0.434435 0.16650277 -0.3289624 -0.08361091 -0.49928346 0.3410791
-0.06694156 -0.25173885 -0.00019216059 0.4170369 -0.11173567 -0.11720489 -0.42174447 -0.25470307
-0.45715255 -0.35014135 0.1615603 -0.47046086 0.18294582 0.3449185 -0.17962772 -0.2805445
0.2728731 -0.2919107 0.30711877 -0.39593422 -0.21799 -0.4505422 0.22730745 -0.38890964
-0.141436 -0.47354937 -0.26675507 0.20037533 0.29845482 -0.13951385 0.12829351 -0.39404297
-0.2409624 0.62774855 0.01687652 0.23253937 -0.39121494 0.40047848 -0.14557779 -0.5326234
0.15928218 -0.07774748 0.06523496 0.0715521 -0.24158439 0.44963366 -0.019452156 -0.54777116
-0.39892137 -0.4311763 -0.10165492 0.15055431 -0.22993587 -0.13987873 -0.4169017 -0.12679347
-0.14296229 0.5280324 -0.3229407 -0.1449666 -0.6391421 -0.2627111 0.1684641 0.08054316
0.2576318 0.39925894 0.047558047 -0.37949717 -0.49065065 -0.03125775 -0.4518925 -0.436938
-0.5327275 -0.35108805 -0.22729276 0.15655147 0.1565374 -0.46852344 -0.24941921 -0.4096612

fc1.bias f4 [24]
00000000: 31ce 003d ca1f 4840 a06d fb3e c79b 05bf
00000010: 3bb4 5a40 9118 0c40 c0bb f23f 7a77 0640
00000020: 00c0 e6b9 bdda 5840 69e4 13bf c0c6 3dbe
00000030: 7bdb 5c40 3a8c 26bc 51e2 6040 793d 5f3f
00000040: f6be e9be 5592 0a40 dffb fd3f 1595 4340
00000050: 23fb 0840 90a8 5dbe 676b 68ba f5fd f13f
0.03144664 3.1269403 0.49107075 -0.5219082 3.4172504 2.1889994 1.8963547 2.1010423
-0.0004401207 3.3883507 -0.577704 -0.18532848 3.450896 -0.010165269 3.5138133 0.87203175
-0.45653504 2.1651814 1.984249 3.0559742 2.1403282 -0.21646333 -0.0008866102 1.8905627

fc2.weight f4 [24, 24]
00000000: 7a2d 1bbe 7175 e73d 35cd 31bd 319d bbbd
00000010: 599e 67be d563 6fbe 90d5 00be ccf7 96bd
00000020: 7fd4 06be b434 693d c36c 27be 70b9 2cbe
00000030: 3956 08bd 445d 61be 9bdb 143e a5b2 b2bc
00000040: 6c57 35bd 5207 dcbd bf05 ee3d f3fa 10be
00000050: 7522 9fbd 0742 20be 8ae9 2cbe 2572 24be
00000060: 05df 213e 81d4 23bd 7589 b3bd 6e3b e23d
00000070: e9cb 00be d695 adbc 2f45 193e 964b c5bd
00000080: b1af cc3d 47b8 a4bd 8f05 d6bd 5789 ecbd
00000090: ab0b 2cbe acdd 36be 3787 223e 850a 34be
000000a0: 4dfc 213e 8309 11be dfcc 123e 7e13 3ebe
000000b0: 6681 66be f684 a9bd 8841 d43d 2b02 0d3e
000000c0: 4112 803e 6b0b 2dbe 9b67 9c3e 3ef1 843d
000000d0: 2996 0abe f812 7dbd c92f 49be 2b17 0d3d
000000e0: 416e 643d 795b bebe 627b 02be e67d 003e
000000f0: ef2c a5bd ab93 e63e 5cb8 9dbe 3348 123d
00000100: b5ce cfbd 4e62 01bf 585e 803d 4a4c 30be
00000110: 15b9 f3bd 98c4 2f3e b44b 7c3e a71c b9be
00000120: 61b1 4abe 2e7b 2f3e eff8 4cbd d957 b63d
00000130: a7bb 26be 0559 483d 5974 333e 0ce0 35bd
00000140: c77b cd3d 289d 443e 43c5 2cbc fe48 0ebe
00000150: 2208 dbbc 3416 b2bc 6321 99bd ec1f 8fbc
00000160: 6def 183e 23c4 11be 992f 19be 90c7 abbd
00000170: f1c1 183e afa3 0bbe 01be aabd c8c3 b9bd
00000180: 0b53 68bd 963c 1dbe 965c 8d3d 7dcf d5bd
00000190: cdb1 88be d264 12be 5634 3abe 6cb5 213e
000001a0: 8da2 193e 5544 dbbd 6278 8c3d d204 33be
000001b0: cd5e 28be 2a92 edbd 4e70 25bd 0341 853d
000001c0: ae1e 233e 677e 09be 3c27 89bd 2160 cdbd
000001d0: 1715 b23d 3908 823d 890a 3b3d d1b3 0dbe
000001e0: 8bab 113d 2491 d53b 51d9 1cbe a1c7 83bd
000001f0: d663 5cbe 0c4c 8e3e d0f5 eabd 6e9f 8a3e
00000200: 2e9f d63c 2308 08be d5c4 fa3c a0a9 6e3d
00000210: e39e 44be 7dd0 ad3e bc25 31be c911 d0bb
00000220: 7105 4f3d 7b2e 00bd 892b 723d e31b bbbd
00000230: 2dc1 513d 5bb9 e0bd 24b5 33be b287 aa3d
00000240: e654 babd c5f4 eebd b7cc ccbd 9997 f33d
00000250: b77a 74bd 8dd0 c9be fc9e 9fbe 8b0a 62be
00000260: 3150 8abc c63c b13d 0bd5 a63e 440a 3fbe
00000270: aa88 02bd bc68 993e a0bd d4bd d009 d63e
00000280: 728f cabc 29bb 7dbe 6661 55be 52e6 cb3c
00000290: 8516 74be ad27 2bbe fb84 c53d 7519 f6bc
000002a0: 87bb a23d 414b 6240 5036 033f 02b1 f43e
000002b0: 474e 8140 e803 0340 6ca6 0440 a3a7 0240
000002c0: b1dd 14be a925 4540 4388 183e 6692 dabd
000002d0: 5faf 6d40 0f2c 203f ea3e 6940 905b a53f
000002e0: 4402 6abc 1142 0340 e3d5 0440 722e 8040
000002f0: b5e4 e03f 46f6 a93d 7e4f 1c3f 407e f83f
00000300: 13ac 26bd df05 cb3c 9174 54be 4979 16be
00000310: 6bba 173d af88 453b 7ad9 333d 601c 35be
00000320: 0c90 c5bc 52f3 6bbe bf09 aebd e4a2 09bd
00000330: f756 9e3d 6f37 01be 9c6a 56be 796e c5bc
00000340: 6b10 203e e719 e1bc 4505 cdbd 69db 86bd
00000350: 1413 49be 4d69 b73d 3204 80bc 6df0 c93d
00000360: 42a7 243e 03bc e0bd 3660 963e 88ef bc3d
00000370: 3751 733d 6596 ebbd 1289 47be 71ea 28bf
00000380: 5ba5 433e 9704 4fbe b657 7b3e 0933 623d
00000390: 41f2 9ebe 5ffb aa3d e31c 50be fcfd 6e3c
000003a0: 3ecc debd 4747 9bbe 034f 7fbe 7003 d33d
000003b0: 8575 34be b455 a63d 5be9 203f dc43 05be
000003c0: 4bb6 8dbe ecbe 3e40 8395 af3c 1871 d63e
000003d0: a246 4840 04f7 b63f 70c9 973f 88ab a03f
000003e0: f7d8 d0bd 3a8f 1e40 eb0c 203e 673d 223e
000003f0: 5d92 4240 7073 053f 1fbe 3440 97a0 673f
-0.15154067 0.11301697 -0.04340859 -0.09160841 -0.22618999 -0.23377927 -0.12581468 -0.07371482
-0.13166998 0.056935027 -0.16350083 -0.16867614 -0.033285353 -0.22008234 0.14536898 -0.0218137
-0.044272825 -0.10743584 0.1162219 -0.1415823 -0.07770244 -0.15650187 -0.16885963 -0.16059168
0.15807731 -0.03999758 -0.08766452 0.110464916 -0.12577786 -0.021189611 0.14967798 -0.096335575
0.09994448 -0.080429606 -0.10450279 -0.11549633 -0.16801326 -0.17857999 0.15871893 -0.17582138
0.15818901 -0.14163785 0.14335965 -0.18562123 -0.22510299 -0.082773134 0.103640616 0.13770358
0.25013927 -0.16898887 0.30547795 0.06491326 -0.13533844 -0.061785668 -0.19647135 0.034445923
0.05576921 -0.37179163 -0.1274238 0.12548026 -0.08065211 0.45034537 -0.30804718 0.035713386
-0.10146848 -0.50540626 0.06267995 -0.17216602 -0.11900536 0.17164838 0.24638253 -0.36154673
-0.19794227 0.17136833 -0.05004209 0.08903474 -0.16282521 0.04891302 0.17524852 -0.04440312
0.10033374 0.19200575 -0.010545078 -0.13895032 -0.026737276 -0.021739103 -0.07477071 -0.017471276
0.14935084 -0.14234976 -0.14959563 -0.08387673 0.14917733 -0.13636659 -0.083370216 -0.090705454
-0.05671982 -0.15355143 0.06902425 -0.10439966 -0.2669815 -0.14296272 -0.18184027 0.15791863
0.15003414 -0.10706393 0.06858899 -0.17482308 -0.16442414 -0.11600144 -0.040390305 0.065065406
0.15929672 -0.13427125 -0.066969365 -0.10028101 0.08695429 0.063492246 0.045664344 -0.13838126
0.035563987 0.0065175463 -0.15317275 -0.064345606 -0.2152246 0.27792394 -0.11472666 0.2707476
0.02619895 -0.13284354 0.030611435 0.058267236 -0.19201235 0.33948126 -0.17299551 -0.0063497764
0.0505423 -0.031294327 0.05912355 -0.09136178 0.051209617 -0.10972854 -0.17549568 0.08326663
-0.09098224 -0.1166778 -0.09999984 0.11894149 -0.059687342 -0.39416924 -0.31175983 -0.22074334
-0.016883941 0.0865417 0.32584414 -0.1865626 -0.031868614 0.29962718 -0.103877306 0.4180436
-0.024726603 -0.24778427 -0.20837936 0.024890099 -0.23836716 -0.16714354 0.09644505 -0.030041436
0.07945924 3.5358431 0.5125475 0.47791296 4.0408053 2.0471134 2.0726576 2.0414817
-0.14537694 3.0804236 0.1489573 -0.106724545 3.7138288 0.6256723 3.644465 1.2918568
-0.014282767 2.0509074 2.0755546 4.0056696 1.7569796 0.08298926 0.61058795 1.9413528
-0.040691447 0.024783073 -0.20747592 -0.14694704 0.037043016 0.0030141284 0.043908574 -0.17686605
-0.024116538 -0.23042038 -0.08497953 -0.03360261 0.07731431 -0.12618802 -0.20939106 -0.024100529
0.15631263 -0.027478172 -0.10010771 -0.06584818 -0.19636184 0.089556314 -0.015627 0.09860311
0.16079429 -0.109733604 0.29370278 0.092253745 0.059403624 -0.11503295 -0.19485882 -0.6598273
0.19106047 -0.20216595 0.24545178 0.055224452 -0.310442 0.083487265 -0.2032352 0.014586922
-0.108788 -0.30327818 -0.24932484 0.1030339 -0.17622955 0.08121815 0.6285607 -0.13014168
-0.2767814 2.980403 0.021433597 0.4188316 3.129311 1.4294133 1.1858349 1.2552347
-0.10197633 2.4774919 0.15629928 0.15843736 3.0401833 0.5212927 2.824104 0.90479416

fc2.bias f4 [24]
00000000: 8af6 79be ea8c 883d e973 63be 3a97 0cbd
00000010: 42dc 2abe 7dde 0fbe 8926 6cbd 6ad5 3d40
00000020: cfab 04be 8f54 bdbe 4482 1340 ba4f 50bd
00000030: db55 48bd a01f 71be d858 1140 f9ef 5340
00000040: 4b06 1b3f 09cd e13f 239d f33b bfc5 a6be
00000050: bec0 a5bd bb70 d63e 0921 103d c48d 59bb
-0.24410453 0.06667502 -0.22212185 -0.03432391 -0.16685584 -0.14049716 -0.057653937 2.9661508
-0.12956165 -0.36978576 2.3048258 -0.050857283 -0.048910003 -0.2354722 2.2710476 3.3115218
0.6055648 1.7640697 0.0074345036 -0.32572743 -0.08093403 0.41882882 0.035187755 -0.003319607

fc3.weight f4 [4, 24]
00000000: 7aec dbbd e564 40be f752 bdbe 71f8 6d3d
00000010: 5920 bc3d 23f6 393f cd55 323d 6d3f 58be
00000020: 9120 91bd 07d5 e73d 92b8 c0bd d44f 62bd
00000030: 2d26 473e f304 483f 0117 12be d7a7 24be
00000040: 5c7c a4bd 49c1 a0be 6276 92bd a86b 173e
00000050: 5f63 c93e 7b91 96be 2a93 bebc 0313 973c
00000060: 4b34 57be 4f9b 10be e8df e33e 5107 9d3c
00000070: 5c9d a6bd e64e 4f3f a47a 9fbe 6d80 5dbd
00000080: 46f7 47bc 2999 993f d624 bbbd ec88 1f3d
00000090: b7be d73d d34c 673f e7e3 16be b13f 27be
000000a0: 898c 39be 293e c9bd c633 983d 9704 c93e
000000b0: 87b8 8f3f 694b 3e3f cf90 2abe 2f10 b7bd
000000c0: c0c9 6d3d f114 303e 7db0 013e c46c f53c
000000d0: a14b b83d 4862 8e3e d536 bbbc 3ab9 a8bd
000000e0: a03e 023d a690 823e 0a56 05be 627e 8bbe
000000f0: 82be d33d d69c 313f 6279 203e 0102 00be
00000100: 56a7 6abd 0dee 1e3d e042 f43d be26 813f
00000110: d3d0 173e a135 1b3e c3b9 3d3e 8f9a 963d
00000120: 06b9 c6bc 167a 163e ffba e2bd 08a1 293c
00000130: 75ba 183d f462 4b3f b929 bcbd 1f5c afbd
00000140: dc5b 943b 50ed 173f c3aa 23be 7b52 a4be
00000150: f58a c93d f527 ec3e a3dd d43c 04d1 e2bc
00000160: dd9a bbbd 8162 653a 16fc 9dbc 1a83 843f
00000170: f41e 5b3e d54e d73e 5459 2abe 4b16 0ebc
-0.10738464 -0.18788488 -0.3697736 0.05809826 0.09185857 0.726412 0.043538857 -0.21117945
-0.0708629 0.113199286 -0.09410204 -0.05525191 0.19448157 0.7813255 -0.14266588 -0.16079651
-0.08031532 -0.31397465 -0.07151486 0.14787161 0.39333627 -0.29407868 -0.023263533 0.018441683
-0.21016042 -0.14121746 0.44506764 0.019168528 -0.08135483 0.80979764 -0.31148255 -0.054077554
-0.012204951 1.1999866 -0.09137885 0.03894894 0.10534423 0.903516 -0.14735375 -0.1633289
-0.18120016 -0.09826309 0.0743175 0.39261314 1.1228188 0.74333817 -0.16656803 -0.08938634
0.058053732 0.17195489 0.12664981 0.02995909 0.089988 0.27809358 -0.022853294 -0.08238454
0.031798005 0.25500983 -0.13021103 -0.2724486 0.10339071 0.6937994 0.15671304 -0.12500764
-0.05728849 0.03880124 0.11926818 1.0089948 0.14825754 0.15157177 0.18527894 0.073536985
-0.024258148 0.1469501 -0.11070823 0.010353334 0.037287194 0.79447865 -0.091876455 -0.085624926
0.004527552 0.59346485 -0.15983109 -0.32094178 0.09840957 0.46124235 0.02598459 -0.027687557
-0.09160397 0.0008750335 -0.019285243 1.0352509 0.21398526 0.42052332 -0.16635638 -0.008672307

fc3.bias f4 [4]
00000000: fbb9 6f3e aa9e a13e 5ab1 4a3e b607 293d
0.2341079 0.31566364 0.19794217 0.04126712
